EECE7398-Deep-Learning/Roy_Indrajeet_HW1/model/mnist_trained_model.pth (torch, 614824 bytes, 16 tensors)

C1.weight f4 [32, 1, 5, 5]
00000000: 25b7 abbd 03a6 1abd 4350 82be 5e6e 69be
00000010: 86fb c7bd 30a2 143d 8f80 39be f9ad f3bc
00000020: bffa 853d 289a f93d 263c 3dbe 11a2 e03b
00000030: 811b 043d 90a1 233e 92bb fe3d 1f85 d8bd
00000040: 2f83 01bd ec77 83bc 80b4 113e d191 533d
00000050: 01ba efbd 09a0 dbbd 7cf2 7b3c a983 acbd
00000060: 3629 6e3d 4ed7 67bd cc76 2dbe 84f5 d43d
00000070: b248 c4bd 37e0 febd 8890 613c b7bc 313d
00000080: 0111 1bbd d7eb 0ebe 1517 f8bd f6a4 1ebd
00000090: 32c8 a7bd d495 ef3d 5474 b13d da99 0d3e
000000a0: 574a 523e 562e df3d a125 523d 4d17 a33d
000000b0: 4cad 173e c267 2dbe ef96 93bd 7dd8 d2bd
000000c0: 8b23 64be 572b eebd 9820 d5bd 0767 f2bd
000000d0: bf6b 73bd 0bcd e5bc 8981 a43c 00cc 21be
000000e0: 92fd 90bd ceef 01ba 1f3a e7bd ca82 e23d
000000f0: b772 05bd 2aef 10be 46a1 3bbd fd2f eebd
00000100: c2d6 a33d b897 ca3d 2a03 0fbe 3890 61bd
00000110: bcac 14be dfcb db3d 584a c8bd bd9d 95bc
00000120: 28cc 15be bc4c 0dbd a373 033e a5a6 a13d
00000130: de4a c53c fae5 853d 1b42 d0bd 5909 6cbd
00000140: 8054 0bbe 3902 cabd 3526 df3d 587e 223d
00000150: edc0 3f3d 21ea 59be fc00 f03c c6c6 0b3e
00000160: be7e 67bd 887d e83d 39cb 69be 9cd0 2fbd
00000170: 9ca2 133e e0bf 18be 2128 223e df47 67be
00000180: 39f6 8fbd 5ba3 bb3b 25d9 7d3d a977 a63d
00000190: d642 f03d 9482 1f3e c4bb a8bc d8e9 8bbc
000001a0: 2a39 453e 419e 29be c53d c0bd 83c5 c93c
000001b0: 013c 833c 349e 2e3d d4ad cc3d 7899 b7bd
000001c0: b24a cc3d 8038 113e cb78 d63d 463c a3bc
000001d0: 5e2d 683d 9e88 0abe 1d65 ecbd 1066 b63d
000001e0: 90c0 98be c108 75be 4772 54be 0be6 41bc
000001f0: 2288 003d 87e6 27be 7c79 0dbe 10f6 e3bd
00000200: a577 ec3c 0b3a 1cbd 06d8 54be 12d9 b33d
00000210: 79eb dd3d de41 353d 1078 263e 2396 cbbd
00000220: af94 96bd b10d f73d 669a 2c3d ffff 12bd
00000230: edda 38bc 13ea 46be e824 143e b52f 3c3d
00000240: 2846 9b3d 440e b53d b587 5bbe 0d2d 80be
00000250: 035f 06be 1446 0abe d1ef 78bd 86c4 713e
00000260: 4cc3 003e bbb4 1ebd baa1 96bd 07ef 8cbe
00000270: 7874 3abe 2e85 e13d a6ed efbc c7b5 b0bc
00000280: f0e9 4bbd 1d77 73be 0d54 053d e832 f53d
00000290: 1827 f6bd 1446 0b3e 55b6 1fbe 4ddd 11be
000002a0: 1791 9ebb fb0f bfbd c227 d33d a672 4d3d
000002b0: 4bf0 9e3b 631a edbd 28ab b4bd 0cd0 e33d
000002c0: dd5a 013c 7aac 49bd 585a ebbd 378a 31be
000002d0: 70e8 cebd 758a 433e cd62 5f3d f574 a3bd
000002e0: b6da 4fbe 510c 5bbd ce7c 003e b607 203e
000002f0: b6ff ec3d 926a 96be 5c60 a0bd 33f2 7c3e
00000300: 361c 383c f64b 72bb a1e9 3fbe a22d 253d
00000310: e493 ab3d a9c9 e9bd cec1 4bbe cea6 90be
00000320: e541 693d a291 21be 1114 24be 1445 adbd
00000330: cdf4 083d d1bd f8bd b218 1abd f3b0 12bd
00000340: 5022 db3d 48e0 843c 35c8 ddbd 5e5d 193b
00000350: 97d7 92bc c5a0 f13d 2080 223e 9419 57bd
00000360: d95f 07be 827a 05bd 0b78 9d3d 739e 80bd
00000370: 0354 963d ac91 56bd 5bbe 6fbe 628b 5fbe
00000380: d88e 6cbe a2bf 3a3d e800 913d d4f3 eb3d
00000390: 09c7 75bd ff64 97be 721a e33d 0360 283d
000003a0: 3d02 25be 6554 21be 9b35 f0bb bae1 0fbe
000003b0: 422f 8abe 67a8 4abe 3a28 b0bc 552c 003e
000003c0: 18c3 d2bd cc05 cfbd 2ad8 823d 519e 903d
000003d0: 1463 e03d da71 d0bc fbc0 ed3d eeb1 98bb
000003e0: 703f 203c 1ca5 adbd 6851 9b3d ff9c c13d
000003f0: 3ca9 913d d98b 23ba 6dec 0bbd 1580 c63d
-0.083845414 -0.037755977 -0.2545186 -0.22796008 -0.09764771 0.036287487 -0.18115447 -0.029746043
0.06541967 0.12187606 -0.18479976 0.0068552573 0.032252792 0.159796 0.1243812 -0.10572266
-0.031619247 -0.016048394 0.14229012 0.051652733 -0.11705399 -0.10723884 0.015377637 -0.0842355
0.05814477 -0.056601815 -0.16939849 0.10398391 -0.09584178 -0.12445109 0.013767369 0.043392863
-0.037858013 -0.13957153 -0.121137775 -0.038731538 -0.08192481 0.11698499 0.08664766 0.13828221
0.20536171 0.1089751 0.051305417 0.07963429 0.14812201 -0.16934112 -0.07206523 -0.10295198
-0.22279184 -0.1162936 -0.104066074 -0.11836057 -0.059428927 -0.028051874 0.020081298 -0.15800476
-0.07079615 -0.0004956693 -0.112903826 0.11060102 -0.032580104 -0.14153734 -0.0458081 -0.11630247
0.07999946 0.09892219 -0.1396605 -0.05506918 -0.14519018 0.10732245 -0.09779805 -0.018263692
-0.1462866 -0.034497008 0.1283708 0.07893113 0.024083551 0.06538005 -0.101688586 -0.057626102
-0.13606453 -0.09863705 0.10895959 0.039671272 0.046814848 -0.2128072 0.029297344 0.13650045
-0.056517355 0.11352068 -0.2283143 -0.042923555 0.144175 -0.14916945 0.1583562 -0.2258601
-0.07029385 0.0057262606 0.061974663 0.08128292 0.11731498 0.15577155 -0.020597346 -0.017079279
0.19260088 -0.16564275 -0.093867816 0.024630314 0.016019823 0.042631343 0.099940926 -0.08964819
0.099751845 0.1418171 0.10472258 -0.019926202 0.05668389 -0.13528678 -0.11542723 0.089061856
-0.29834414 -0.2392912 -0.20746718 -0.011834632 0.031379826 -0.16396533 -0.13815874 -0.11130917
0.028865645 -0.03814129 -0.20785531 0.08781637 0.108359285 0.04425227 0.16256738 -0.09940746
-0.07352578 0.12063158 0.042139433 -0.03588867 -0.011282665 -0.1942523 0.14467204 0.045943934
0.075817406 0.088406116 -0.21438487 -0.2503437 -0.13122182 -0.13503295 -0.06077558 0.23610124
0.125745 -0.038746577 -0.07355066 -0.27526113 -0.18208492 0.1101173 -0.029288124 -0.021571053
-0.049783647 -0.23775907 0.03255086 0.119726 -0.12019175 0.13600951 -0.15596898 -0.14244576
-0.0048390734 -0.0932922 0.103103176 0.050158165 0.0048504225 -0.115772985 -0.08821708 0.11123666
0.007895199 -0.049236752 -0.11491841 -0.17337881 -0.10102928 0.19095786 0.054537583 -0.07981292
-0.20298275 -0.053478543 0.12547609 0.15627941 0.115722105 -0.29378182 -0.07830879 0.24701767
0.011237195 -0.0036971546 -0.18741466 0.040326722 0.08377817 -0.11415417 -0.1989815 -0.28252262
0.056947608 -0.15778211 -0.1602328 -0.08460441 0.033436585 -0.121455796 -0.037621208 -0.035813283
0.10699904 0.016220227 -0.10829202 0.0023401598 -0.017925067 0.117982425 0.15869188 -0.052514628
-0.13220157 -0.032587536 0.07688912 -0.06280222 0.07340243 -0.052385017 -0.23412459 -0.21830514
-0.23101366 0.04559291 0.07080251 0.11521116 -0.060004268 -0.2956924 0.110890284 0.04110719
-0.16114135 -0.1575485 -0.007330609 -0.14050952 -0.2698918 -0.19790803 -0.021503557 0.12516911
-0.102911174 -0.101085275 0.06388886 0.070614465 0.10956398 -0.025444914 0.11609074 -0.0046598827
0.00978075 -0.08478758 0.075838864 0.09453773 0.07112357 -0.00062387955 -0.03416102 0.096923985

C1.bias f4 [32]
00000000: 5b6c ceb6 4efc 1d38 6066 eb33 802c 3537
00000010: dde6 8137 d02d d735 28a1 7fb5 a108 1fb7
00000020: 4999 4637 0794 1837 be09 55b7 047d 9f34
00000030: df66 3f36 e276 94b4 44e6 7d36 f426 af36
00000040: 8854 4a36 ea7d 9337 0062 33b6 8fce f1b6
00000050: ccf0 2037 9b50 7638 0b21 5836 02c4 4cb7
00000060: 38d4 1736 8a9c 4437 2629 40b6 1c72 bbb7
00000070: b782 37b7 808f 95b5 1070 20b7 b827 a3b7
-6.1518926e-06 3.7666694e-05 1.0961662e-07 1.0798802e-05 1.5485502e-05 1.6032081e-06 -9.5229416e-07 -9.479148e-06
1.1837409e-05 9.094371e-06 -1.2698058e-05 2.970702e-07 2.8521097e-06 -2.7653647e-07 3.783397e-06 5.219941e-06
3.014955e-06 1.7582399e-05 -2.6730122e-06 -7.2064063e-06 9.592808e-06 5.872604e-05 3.2205742e-06 -1.2204984e-05
2.262428e-06 1.17189575e-05 -2.863418e-06 -2.2345273e-05 -1.0938084e-05 -1.1143129e-06 -9.562835e-06 -1.944961e-05

R1.weight f4 [32]
00000000: bf40 463f 8e3e 223f 634e 193f 429f 013f
00000010: 2f46 0a3f 1d4f 273f 54a7 463f 5fa2 593f
00000020: 9750 5b3f 7d47 413f 8a78 2e3f 0848 5b3f
00000030: 54d6 013f 268a 263f 84bd 333f 2f47 5c3f
00000040: 2815 313f b265 2b3f cbb1 103f f84d 283f
00000050: d992 cd3e 9de3 3a3f d8e1 1a3f 0c35 293f
00000060: 053d 3e3f 9a78 303f 6c69 fa3e aecf 243f
00000070: 7d76 093f a8e1 643f 37dd 653f 959c 213f
0.77442545 0.633767 0.59885234 0.50633633 0.5401334 0.6535509 0.7759907 0.85013384
0.85669845 0.7549971 0.6815268 0.85656786 0.50717664 0.6505455 0.7021105 0.8604612
0.69172907 0.6695205 0.5652129 0.6574397 0.40151098 0.7300356 0.6050086 0.6609657
0.7431186 0.68934023 0.48908556 0.64379394 0.53696424 0.89406824 0.8979067 0.6312955

R1.bias f4 [32]
00000000: 3ddf c2be 8572 4cbe 1c83 83be e134 90be
00000010: 8c98 99be dc91 6dbe 3aea 42be fad1 99bd
00000020: dd1e 9dbe 8183 5cbd 0f6b 2dbe a0ea d0be
00000030: cc9f 99be 4c67 69be e830 7cbe d652 7dbe
00000040: c98e efbe 0bd1 00be 1c12 e6be e75b a5be
00000050: 5f80 cdbe 0b57 8fbe b42a aebe 9102 94be
00000060: f908 c3be d305 44be f6c6 bcbe 4990 a1be
00000070: cfda 77be b9d2 52be 2042 a9be 9c31 35be
-0.38060942 -0.1996556 -0.25685966 -0.28165343 -0.29999197 -0.23200172 -0.19034663 -0.07510753
-0.3068761 -0.05383635 -0.16935371 -0.40804005 -0.30004728 -0.22793311 -0.24628031 -0.2473863
-0.46788624 -0.12579744 -0.4493569 -0.32296678 -0.40137002 -0.27996096 -0.34016955 -0.28908208
-0.38092783 -0.19142847 -0.36870545 -0.31555393 -0.24204563 -0.20588197 -0.33058262 -0.17694706

R1.running_mean f4 [32]
00000000: 0262 1dbd 3334 19bd 9965 05bd 914d c7bc
00000010: de87 32bc da83 45bd 1c44 edbc 7340 66bd
00000020: 52dc 47bd 5d74 92bc 633f 03bd 50bd 41bd
00000030: ea62 01bd bb02 74bc 66dd 2ebd 9a6b 81bd
00000040: 586f acbc c385 fbbc cb14 503c 9876 3fbd
00000050: 0bbb 103d 92b3 b9bc fc91 0a3c d17b 3dbc
00000060: 021b 55bd 7f6c 0abd ca7e 04bc 8f5c 04bd
00000070: 5c08 013a c563 0bbd 4f92 4fbd fa78 2dbd
-0.038423546 -0.037403297 -0.032567594 -0.024328979 -0.010896651 -0.048221447 -0.028963141 -0.056213807
-0.0487941 -0.017877752 -0.032042872 -0.047299683 -0.031588472 -0.014893229 -0.04269161 -0.063193515
-0.021049187 -0.030703431 0.01270027 -0.04674396 0.035334628 -0.022668634 0.008457657 -0.011565165
-0.05202771 -0.033794876 -0.0080868695 -0.032314833 0.0004922205 -0.034030695 -0.05067664 -0.0423517

R1.running_var f4 [32]
00000000: ad2e 3c3f a672 563e 14f9 5c3f 3e26 d83e
00000010: 6478 043f 1504 0a3f be30 cd3e eb04 853f
00000020: 5298 303f 1ccf 103f 6d53 343f a207 513f
00000030: 5512 c33e ab1f 873f d7ea 0f3f b99d d23f
00000040: a75c 9a3e 3ff5 de3e fc54 063e 7b39 0c3f
00000050: 80c9 b73e 4b08 3b3f 6931 d83e 6719 143f
00000060: 6337 803f 1fa2 163f 76ee 683e 102b 573f
00000070: ea6e d83d d5e0 913f 9a78 6d3f 155a a73e
0.7350872 0.20942172 0.86317563 0.42216676 0.517462 0.5391248 0.4007625 1.0392126
0.6898242 0.56566024 0.704398 0.8165227 0.38099924 1.0556539 0.5621771 1.6454383
0.30148813 0.43546483 0.13118356 0.5477521 0.3589592 0.7305953 0.42225197 0.5785126
1.0016903 0.5884113 0.22747216 0.84050083 0.1056803 1.1396738 0.9276215 0.32685915

C2.weight f4 [64, 32, 3, 3]
00000000: ee60 00b9 60ea abbc a281 393d 0093 dcbc
00000010: 62f7 0fbb 259b 863d d02d d63c c9c2 cfbc
00000020: bfc8 ae3c 63bf efbc 0767 a83b 0712 023c
00000030: 03ac 64bd d040 30bd 6dbf 52bc b236 61bd
00000040: 7346 293c b1d2 ffbc 5283 67bc f214 cbbc
00000050: e55b f13c 1924 febc 7484 24bd 5409 6b3d
00000060: d433 aabd 6dab e3bc e57d 983d 707a 4c3c
00000070: 4bdb 683c c3a2 853c fd06 313d 3a17 b23b
00000080: 66ff 5b3d 5796 6f3d ec3f f7bb d6cd 08bb
00000090: 5158 443a a5e0 88bc f546 d43c 7278 c13d
000000a0: b20c 223d 4431 8b3d 10d9 2d3d f09d 9ebc
000000b0: 3de0 f8bb a4f2 b23d 7bbb 093d 583a 053d
000000c0: 0714 7b3d 9d2b 6a3c 8754 28bc c073 2b3b
000000d0: 3c1b 433d 8747 33bd 9992 0e3e fd6e cf3d
000000e0: 2d06 443d 5047 a03d 3ff5 523d f2fa 1bbc
000000f0: ffe0 22bd bbc2 cdbc 9762 b9bd 2e59 fcba
00000100: a13a 28bd dc38 1fbd bd35 4f3e f29b 073d
00000110: 11c8 c53c f19d 623e 43aa a93c 1912 863d
00000120: 9804 bbbc 67bb 18bc 2aa6 83bb c92b 32bc
00000130: 602a 43bc b13e 83bd 3895 9fbc bb90 8bbc
00000140: 5e3c 9ebd e85a e0bb 1734 cabb f5b4 663d
00000150: 9dc9 80bd a3e8 9c3a 2cfc 913c 5250 fd3b
00000160: 552d 933d ec73 0dbd e212 653d 6ef6 8bbd
00000170: ac43 1bbd 17c0 3ebb d40c a4bd 3aaa 4bbd
00000180: 5f56 cfbc 5689 c0bd 36bb 623c 38f5 fabb
00000190: 8d52 f9bb f949 1bbc a0e7 81bc c162 513d
000001a0: 93f8 00bd 0029 e6bd 6699 9a3c d293 aebd
000001b0: 2d2f d5bc 248e f2bc f0a5 983c ef83 fabc
000001c0: 276b 93bd 432f e0bc c62b 8fbc ba9a fa3c
000001d0: 8709 7a3d 27de fa3b 27a6 2fbc a228 ba3c
000001e0: 2368 32bd 4200 75bc a1d1 5c3d d018 69bd
000001f0: 909b f9bc 7571 b33d 04a8 14bd fdc1 2bbd
00000200: 7562 eebc 686b bebd f79c 203d 13a7 7e3c
00000210: ab66 1bbd 115f fd3c 95de 39bc 7dc1 b73b
00000220: 4e76 b3bd 6ba9 1b3d d17e c6ba 28ae 9ebd
00000230: 78d9 0cbb 145f b6bb fe27 e7bc 0339 603d
00000240: d163 ab3c ed25 d0bc bf89 2bbd beed b63b
00000250: c4b6 8ebc 12d4 b33b 11e5 e6bd 55b3 4ebd
00000260: a9a4 48bd 445c a1bb 37c8 c63c af71 1dbc
00000270: db55 1cbd 4309 46bc b48f afbc 1494 753d
00000280: 597e 9f3d f23d 3abb c8ea 2c3b a117 e53b
00000290: c945 e4bc 7af9 16bc 4800 b8bc 75e4 b7bc
000002a0: 7b12 49bc 4a52 45bd ce1c f7bc 85f3 98bb
000002b0: cd74 0cbd 9309 0b3d 2117 91bd 0477 d0bd
000002c0: cd82 01bc ba02 a0bd cdc5 a0bd 7f59 103d
000002d0: 9a58 703b 45e9 6dbd b083 51bd c9b3 02bd
000002e0: a9d7 83bd 0538 78bc f6cb 2dbd 2c67 17bd
000002f0: 222c 043d 563a 9fbd c81b 45bd c07c 65bd
00000300: 3c77 963b 88a9 e3bc b38b c3bc 61ea c83d
00000310: 496e 993c 5afa 003d ead8 11bd 4c2b dfbc
00000320: aecc 32bd 7fa9 0c3d 18f4 4c3c 7173 38bd
00000330: 2671 c3bc f3a3 903a 0fb3 26bd b511 2b3d
00000340: d7e3 433c c0d2 0fbb ec05 a63d bd22 a03c
00000350: e0e7 dcbb 48d1 b33d f00b a73c 62b9 963a
00000360: 2d37 35bc 4761 95bb b392 c93c 6057 393d
00000370: 99ee e83b 3d46 24bd e096 203d df37 42bc
00000380: 932a 06bd 826c 38bd 0b15 cbbc ec23 4f3c
00000390: e07b d8bc b951 3bbd edf3 e53c 7ed7 4a3b
000003a0: 3442 bdbc 1c33 793d 138b 1a3e 2651 273d
000003b0: d527 423d 5301 a73d 7316 733b 2a00 f43b
000003c0: c23a 69bc 24cd 82bc 2a73 fc3b 9ccb 713d
000003d0: fc35 963c 8bc3 0f3d 5272 dfbc 157b 87bb
000003e0: 4093 d93c c286 b53c ccad 1d3c 221e ad3d
000003f0: 7670 bb3c 1853 493d d509 cf3b 4af2 a9bd
-0.0001224314 -0.020985782 0.045289643 -0.026925564 -0.002196752 0.0657256 0.026144892 -0.025361435
0.021335958 -0.029266065 0.005139235 0.007938868 -0.055828106 -0.04303056 -0.012863022 -0.054983802
0.010331738 -0.031228395 -0.01413043 -0.024790261 0.029462764 -0.031023072 -0.04016538 0.057381943
-0.08310667 -0.027791703 0.074458875 0.012480363 0.01421244 0.016312962 0.043219555 0.0054348977
0.053710364 0.058492985 -0.007545462 -0.002087464 0.0007489967 -0.016708681 0.025912741 0.09446801
0.03956289 0.06796506 0.042443335 -0.01936242 -0.0075950907 0.08737686 0.03362606 0.032526344
0.061298396 0.014292625 -0.010274059 0.0026161522 0.047633395 -0.043769386 0.1392311 0.10128591
0.047857452 0.07826102 0.051503416 -0.009520279 -0.039765354 -0.025117269 -0.09052008 -0.0019252652
-0.041071538 -0.038872585 0.20235343 0.033107705 0.02414325 0.22130562 0.02071107 0.065464206
-0.022829339 -0.009322024 -0.004017611 -0.010874697 -0.011911958 -0.06408442 -0.019480333 -0.017036786
-0.07726358 -0.0068467744 -0.0061707604 0.056324918 -0.06288455 0.0011971187 0.01782044 0.007730522
0.07186381 -0.03453438 0.05592621 -0.06834112 -0.037906334 -0.0029106194 -0.08010259 -0.049722888
-0.02530974 -0.09401195 0.01383858 -0.007658627 -0.007608718 -0.009478086 -0.015857518 0.05111957
-0.03148706 -0.11238289 0.018871974 -0.08524288 -0.026023472 -0.029608794 0.018633813 -0.030580489
-0.07198172 -0.027366286 -0.017476927 0.030591357 0.061044242 0.007655877 -0.010720766 0.022724453
-0.043556344 -0.014953675 0.053910855 -0.05690843 -0.030469686 0.087618746 -0.036293045 -0.04193305
-0.029099682 -0.0929783 0.039212193 0.015542763 -0.03793971 0.03092912 -0.011344572 0.0056077824
-0.08762799 0.038003366 -0.0015143995 -0.077480614 -0.0021491926 -0.0055655334 -0.028217312 0.05474187
0.02092162 -0.02540871 -0.04187941 0.0055825403 -0.017421134 0.0054879272 -0.1127416 -0.050463993
-0.048985157 -0.004924329 0.024265392 -0.009609624 -0.038167816 -0.012087169 -0.021430828 0.05995567
0.07787771 -0.002841827 0.0026385058 0.006991342 -0.027865307 -0.009214753 -0.022461072 -0.022447804
-0.0122724725 -0.04817418 -0.030165102 -0.0046677017 -0.034291077 0.033944678 -0.070844896 -0.101789504
-0.0079047205 -0.0781302 -0.078502275 0.0352416 0.0036673904 -0.05808379 -0.051150978 -0.031909738
-0.06437618 -0.015150075 -0.04243084 -0.036963627 0.03226865 -0.077747986 -0.048122197 -0.056027174
0.0045918506 -0.0277908 -0.023870325 0.09810329 0.018729346 0.031488754 -0.035607256 -0.027242325
-0.04365223 0.03434133 0.012509368 -0.04503197 -0.023857664 0.0011035189 -0.040698107 0.041764934
0.011956177 -0.0021945685 0.08106598 0.019547815 -0.006741509 0.087801516 0.020391434 0.001149934
-0.011060518 -0.0045587155 0.024606084 0.045249343 0.007108521 -0.040106047 0.039206386 -0.011854141
-0.032755446 -0.045025356 -0.024790308 0.012642842 -0.026426256 -0.045732234 0.028070414 0.0030951197
-0.023102857 0.060839757 0.15092115 0.040848874 0.047401268 0.081545494 0.0037092238 0.0074463086
-0.0142352 -0.01596696 0.0077041583 0.059032068 0.018336289 0.035098594 -0.027276192 -0.0041345456
0.026559472 0.022158984 0.009623956 0.08453013 0.022880774 0.04915151 0.0063183107 -0.08298166

C2.bias f4 [64]
00000000: d915 2f38 c3c1 deb6 0e68 3336 2e8c 9b37
00000010: a078 b7b5 e0b6 f434 ff80 e2b6 2adc 05b7
00000020: 20be 9a34 7009 bab7 9ee3 8db8 3b3f 2a37
00000030: 8621 bbb7 6aad 1036 8b31 13b7 cb4e a7b7
00000040: f978 3438 aead 9bb6 88d8 9535 88ad 4736
00000050: d008 8236 08ef 0537 2f4f 97b7 28b7 58b6
00000060: 64ee 4e36 57bc c1b7 f073 bc34 642c 36b7
00000070: 2d34 64b7 ff24 beb6 fc21 ee36 6af4 26b7
00000080: 1084 c6b4 3052 24b8 5769 da37 d87a ae36
00000090: a636 9a37 e042 02b7 0ec3 75b7 b88c 9cb4
000000a0: f5d6 09b7 0cae 2336 9eec f4b6 8ebb 1d38
000000b0: d811 d537 a680 2338 805f 1cb4 7941 c436
000000c0: fa62 c6b6 8060 d1b7 1e40 0238 6c4d 8637
000000d0: 5005 ae35 4108 bcb5 fc8a 0736 1459 b2b6
000000e0: d956 bab7 303f 9535 cc43 7037 e010 d637
000000f0: 22d1 9737 3c94 2237 da67 8d37 c438 1037
4.17436e-05 -6.6386724e-06 2.6733646e-06 1.8542716e-05 -1.3669669e-06 4.55816e-07 -6.750342e-06 -7.978679e-06
2.882307e-07 -2.2177323e-05 -6.765801e-05 1.0147512e-05 -2.2307748e-05 2.1558612e-06 -8.773418e-06 -1.9944642e-05
4.302801e-05 -4.639579e-06 1.1164384e-06 2.975432e-06 3.875328e-06 7.983072e-06 -1.8037475e-05 -3.229312e-06
3.0835154e-06 -2.3095095e-05 3.5102084e-07 -1.0858381e-05 -1.3602007e-05 -5.666748e-06 7.096909e-06 -9.951278e-06
-3.6976462e-07 -3.917719e-05 2.6036678e-05 5.199905e-06 1.8383678e-05 -7.764174e-06 -1.4648553e-05 -2.915965e-07
-8.215885e-06 2.4390201e-06 -7.2993125e-06 3.760639e-05 2.5399888e-05 3.898204e-05 -1.4563375e-07 5.848877e-06
-5.912382e-06 -2.4959678e-05 3.105413e-05 1.6010097e-05 1.2965556e-06 -1.4009494e-06 2.0197467e-06 -5.3151834e-06
-2.221337e-05 1.1119755e-06 1.43209e-05 2.5518646e-05 1.8097988e-05 9.690466e-06 1.685687e-05 8.596286e-06

R2.weight f4 [64]
00000000: 0cc6 763f c833 723f 602f 273f 2eb0 6c3f
00000010: 8b1d 733f 0daf 5d3f 90b2 693f 24ca 2a3f
00000020: b7bb 8e3f e659 8f3f e656 893f 2005 603f
00000030: 7ba5 403f dadb 183f ee5a 8a3f e015 653f
00000040: 8ea7 9b3f 1c51 213f 7654 703f 40ac 6a3f
00000050: 1b08 633f d863 633f ed12 7e3f f2c1 0f3f
00000060: 4974 5b3f cf35 843f 0add 523f f518 8f3f
00000070: c8a5 613f 6207 0e3f 1bf2 353f adb3 1e3f
00000080: 0e95 4e3f aa08 813f a47c 2f3f 0d11 483f
00000090: 5c71 553f e440 643f 7246 6d3f 9b05 333f
000000a0: 0e1b 613f e90d 863f f387 773f ec84 743f
000000b0: fcce 4f3f bb97 843f c19e 4a3f dcb3 783f
000000c0: 4e38 233f f6c4 813f b455 5c3f 3b6e 603f
000000d0: bb8a 8a3f 4136 083f 24dc 323f f78a 613f
000000e0: c92d 843f 745c 653f 09b4 543f a271 833f
000000f0: b3c7 293f 1afa 813f 9dce 5e3f cddc 5d3f
0.96395946 0.9461026 0.65306664 0.9245633 0.94966954 0.8659523 0.9128809 0.6671469
1.1151036 1.119931 1.0729644 0.8750782 0.75252503 0.59710467 1.0809 0.89486504
1.2160509 0.6301439 0.9387888 0.9166908 0.8868424 0.88824224 0.9924763 0.5615531
0.8572431 1.0328921 0.8236853 1.1179491 0.8814359 0.55480015 0.7107255 0.61992913
0.8069619 1.0080769 0.6854956 0.7815102 0.833761 0.89161515 0.92685616 0.6993043
0.8793191 1.0472995 0.9669182 0.9551532 0.8117521 1.0358804 0.7914849 0.97149444
0.6375779 1.0138233 0.8606827 0.876682 1.0823587 0.53207785 0.6986716 0.8810267
1.0326473 0.895942 0.8308721 1.0269053 0.6632034 1.015445 0.87034017 0.8666504

R2.bias f4 [64]
00000000: 8dcc a2be a867 85be 2f03 81be f775 99be
00000010: cd35 5fbe 8422 7ebe 3b7e 80be 46c8 99be
00000020: 373f 87be f2fc a2be 36e7 4bbe fcb3 b5be
00000030: e040 8cbe 8f4b 83be 891d 4abe 42d6 87be
00000040: 59c7 4cbe 6054 91be 2e35 85be d4d8 d0be
00000050: e743 82be e616 87be 1f27 99be 57bf 6cbe
00000060: 00a1 99be e7d2 a4be bdb9 82be 8018 6bbe
00000070: 398b 94be c54c 8abe f7c2 87be 2c41 89be
00000080: cece acbe 44d8 95be cbfb 9dbe 307c 6abe
00000090: 08dd 61be 9781 5abe d510 9bbe a706 86be
000000a0: fbfa 80be fc04 62be f39d 81be abac 68be
000000b0: 3de1 a6be ed5a 9dbe 273e a2be 82a7 7dbe
000000c0: effc 88be e4a5 1fbe f488 99be 7937 a5be
000000d0: 505d 1ebe df03 8fbe 0ad4 87be 9943 87be
000000e0: 870c 65be b3e6 aebe a243 57be 59dc 6bbe
000000f0: 72d6 88be 011a 61be ebef 8cbe 9002 80be
-0.31796685 -0.26055646 -0.2519774 -0.29972813 -0.21797867 -0.24817854 -0.25096306 -0.3003561
-0.26415417 -0.31833607 -0.19912419 -0.3548888 -0.27393246 -0.25643584 -0.1973783 -0.26530653
-0.1999792 -0.28384686 -0.26017135 -0.40790427 -0.2544243 -0.26384658 -0.2991266 -0.23119865
-0.30005646 -0.32192156 -0.25532332 -0.22958565 -0.29012468 -0.27011696 -0.26515934 -0.26807535
-0.3375153 -0.2926656 -0.30856165 -0.22898936 -0.22056973 -0.21338497 -0.3028628 -0.2617695
-0.25191483 -0.22072214 -0.25315818 -0.22722118 -0.32593718 -0.30733433 -0.31688043 -0.2477093
-0.26755473 -0.15590626 -0.299873 -0.32268885 -0.15465283 -0.2793264 -0.2652896 -0.2641876
-0.2236806 -0.34160385 -0.21021894 -0.23033275 -0.2672611 -0.21982576 -0.27526793 -0.25001955

R2.running_mean f4 [64]
00000000: a961 ec3d ea94 623e 1812 c5bd 951e 823e
00000010: 2f97 ffbd 717e d4bd aeaf dbbd 86ba 92bc
00000020: 9e5b afbc 9234 85be 0a21 efbe 5580 1d3e
00000030: da7f 22be ba12 7dbe 4cf2 003e 1051 80bd
00000040: 5275 57be f642 11bc fbff 3fbe 5405 313d
00000050: 47ee 973e e0cd 63be 0a1c 003e 9e87 8f3d
00000060: eefb 91be fe26 97be 4fa8 a4bd 3fd8 9b3c
00000070: b705 8b3e 64f9 a63c 7e1e 9d3d b4f3 3c3d
00000080: 8f38 393e 1894 bdbe 3ed9 13be 2740 b7bd
00000090: 7f21 9abd 8aaa 0ebe 067e 3bbd 13fa 13be
000000a0: 7a0d 933c aa1d 40be 500c 613e 3b8a 82be
000000b0: c9e3 9ebe 099d 403e 33cc 8abe d643 83bc
000000c0: 2ab1 7fbd cfe9 aebd 709c 2ebe 19dc 9f3d
000000d0: ca5f 1b3e ae54 84ba 46e4 fbbd 9aba febd
000000e0: 2a10 df3d 8abe ea3d be89 973d 20d7 e33e
000000f0: e36c 37be 92ab d9bd 7bfa 38be 1bb5 4fbd
0.11542065 0.22127119 -0.09622592 0.25413957 -0.12480008 -0.10375679 -0.107268676 -0.017911207
-0.021405991 -0.2601667 -0.46704894 0.15380986 -0.15869084 -0.24714175 0.12592429 -0.062654614
-0.21040848 -0.008866062 -0.18749993 0.043217972 0.2967398 -0.22246504 0.12510696 0.07008289
-0.2851252 -0.29521936 -0.08039915 0.019024013 0.27152798 0.02038259 0.076718315 0.04613085
0.18087982 -0.3702705 -0.1443834 -0.08947783 -0.0752592 -0.13932243 -0.045774482 -0.14450864
0.017950762 -0.18761316 0.21977353 -0.25496086 -0.3103316 0.18809904 -0.27108917 -0.016023558
-0.062424816 -0.08540689 -0.17051864 0.07805652 0.1517326 -0.0010096037 -0.12299399 -0.12437935
0.10891755 0.11462124 0.07399319 0.44500065 -0.1791263 -0.106284276 -0.180643 -0.050709825

R2.running_var f4 [64]
00000000: 3ce3 ec3d d89f 263e 868d 013e 3776 f83d
00000010: 2547 143e e4b3 063e 8b60 f93d 2028 dc3d
00000020: 9699 123e 95a2 0d3e 6e60 133e 348f db3d
00000030: 18c7 d73d 0143 433e 3c88 4c3e 8311 b13d
00000040: 2f71 093e b6b3 da3d ad22 703e 73db e23d
00000050: 834c 133e 047f 1c3e af0e 143e 1c14 f23d
00000060: 2398 023e be5d 203e ec50 da3d 9774 0d3e
00000070: 3723 0b3e 3c14 bc3d 6357 303e bfd6 e23d
00000080: 5c75 ea3d 202f 013e 973b eb3d 53b6 013e
00000090: 2b5c 313e fcc8 d73d 3cad db3d f700 103e
000000a0: 5fce 063e ddbd 053e 10f2 0c3e a4fd 373e
000000b0: 2948 db3d 8991 0b3e 8f07 e63d 01de d93d
000000c0: 9e1f e23d 238c 033e 2686 d23d 9271 0a3e
000000d0: 6d0d 583e d04c 783d 0c47 463e 599c 483e
000000e0: f908 2d3e 50fe 153e b8b4 093e 530c 0d3e
000000f0: af37 e23d 8e3d 593e 7106 293e e38e f53d
0.11566779 0.16271913 0.12651643 0.12131923 0.14480264 0.1315456 0.12176617 0.10749841
0.14316401 0.13831551 0.14392254 0.10720673 0.10536021 0.19068529 0.19973844 0.08645918
0.13422082 0.106788084 0.23450728 0.11077013 0.14384656 0.15282828 0.14458726 0.11820242
0.12753348 0.1566076 0.10659966 0.13814007 0.13587652 0.09183547 0.17220835 0.11076116
0.11448166 0.12615633 0.11485975 0.12667207 0.17320316 0.105363816 0.10726401 0.14062868
0.13164662 0.13060708 0.13764215 0.1796785 0.10707123 0.13629736 0.112319104 0.10638047
0.11041187 0.12846427 0.10279493 0.13519886 0.21098872 0.06062013 0.1936304 0.19590892
0.16897954 0.14647794 0.13447845 0.13774233 0.11045777 0.21214887 0.16506363 0.11990144

F1.weight f4 [128, 1024]
00000000: 7b16 851e 8eb7 759d ea59 ba22 cca1 0fa7
00000010: 8b66 829e b099 00a9 4b6f f3af 2564 67af
00000020: 9442 121f 73c1 cea5 c9af 08a9 2f18 29a6
00000030: 1c63 c21e 9c1f 699f 446d f79d f4fc 0400
00000040: 2a7c 0480 bd4e 0400 7329 8e90 2146 0e80
00000050: c510 6220 ae30 b220 bab7 329f 51ca 219f
00000060: 9c24 1da0 824e 42ac 9390 30ab 05e8 471f
00000070: 91a6 c923 edc2 16b1 c8f4 3ab0 8b92 5106
00000080: 501f 1911 e4bf a39c e285 3c1e e768 0580
00000090: 9f74 d61c fe4b 2c23 a377 3021 177c 751e
000000a0: d1a9 4d1c bbac f0aa a9b5 9ca6 76e9 b41d
000000b0: 6d5d 9a1c 0a5e 47ab 227d 36a4 339d 0a80
000000c0: 0952 b51f 3575 bca8 ed62 5c20 b601 9b1d
000000d0: 9ae9 5a20 8a9f 97ab c065 e922 5656 b61e
000000e0: 0adb 8ba8 ec8e a6ac f7fc 8e1e b77c 609d
000000f0: d958 21a6 9aef 33a8 a01d 0994 94f3 a983
00000100: 3052 0300 516b b187 5c49 11a1 ae3c 169f
00000110: f592 3d9e f994 f0a7 9205 c2b0 431a a2ad
00000120: 761f bf9a 71fa 98a0 ec92 06ab 4ae7 0da9
00000130: f85e 961d c4d4 309e 553a 1e14 3109 4b10
00000140: 653d ce1d a405 7cab 20fb 54aa 350d 019c
00000150: 276f 899c 1a50 d3ad 3cb0 54ae 20b6 249b
00000160: f613 0f92 b981 c2a9 4680 27a9 74ab 0e9b
00000170: 36ee 239c b599 088e 69d7 d287 cb17 fc1d
00000180: d709 0800 8c5d 1600 1a74 0500 87d9 0a80
00000190: 9125 2f1f a4d8 41a7 eab8 ec9f 4c24 c612
000001a0: 5776 111f 4336 90aa a4e1 4521 501f 0580
000001b0: 0046 ea9e 2f39 5c23 c5d0 d41f 2cc2 0600
000001c0: fba2 0400 127c d203 4c5d 611b ef63 121d
000001d0: 0925 7992 f66d 141f f752 4a9f 400c 2093
000001e0: 1fbc 8212 0ce8 32a0 4649 331e 5428 4f1d
000001f0: 60b2 051d dcf8 71a0 95b9 169e c9c2 0c00
00000200: 2921 921d 608c dd1a a968 12a0 394c 819e
00000210: f1eb 441e 9a92 a9a5 7b43 f2aa 5c7d cd9f
00000220: a1f7 c11d 707e 0baf ee63 84b0 cb98 0a23
00000230: 84c2 811d 1acf e9ac 4116 abac 189b 229c
00000240: 2df4 9794 c957 0b23 c299 46a9 facf 5e9c
00000250: 47d9 3e1e db73 60ac f493 90ae 139e 221c
00000260: 1011 a016 50e8 00af af1a 00a3 ba3b 8791
00000270: 8969 a21e 0fca eca7 550e b31c e9af 5a1b
00000280: 41bd 031e 6209 bb11 f075 6713 12bb 0d1e
00000290: 1e15 b79d 0f23 98ac 918e 862d 6c28 b61c
000002a0: f205 b21c b8d5 06b1 74eb f1ac ead9 569d
000002b0: e276 3e9f e6c6 83ab 4aa8 151f b017 ab1e
000002c0: 8acd 191f ac2a c21e 4e4f 8a1d 458e 5e9e
000002d0: c9df 8d1f 08ed d59f 77a0 85a7 46f6 88a0
000002e0: 2a9d 771e a8ca c1a8 1cfe c0a9 b9f7 ee1d
000002f0: a390 14a0 ef7c 8baf cdd2 8db1 4db2 a69c
00000300: f1e4 8e14 7710 9b9f 5211 75a0 969c 179b
00000310: e78f ac14 ad10 d9ac 6660 beac 14d2 6111
00000320: 0e1e ff01 4176 01af b38f 0eaa 677a f211
00000330: e0d7 231e b7d8 4aa8 4cc1 9e9e 67fc 151f
00000340: 6e0c f99c fd23 cc9e 7696 711e d39e 049f
00000350: 9e50 fc9c 5260 641e bb10 da9e 7c56 d49e
00000360: b26d b51d fbac 779d 3a36 849d 449b 729e
00000370: d42f d99c 8f2c 479c a0e6 da1d 3382 769e
00000380: 8e92 1c1c f071 be1f cfa6 ba9f e9f8 0e1f
00000390: 068c 249f fe13 b0a0 bc77 6da0 f720 b79e
000003a0: b50c 571d 8356 f4aa d40c e3aa d9d3 1a0d
000003b0: ea3e c89e 3ae8 2cb1 703f 46b3 414a 591e
000003c0: d39c 811f d9ac 8723 058b 929e 7d23 0c80
000003d0: e3c3 a621 77b5 aaab 78bb 78a0 fdba d112
000003e0: 847c d79f 3ee8 f623 3382 809f f679 8a8d
000003f0: 895e a21f d0f2 8fa0 a2f5 8b93 34e0 0992
1.409122e-20 -3.2520376e-21 5.05106e-18 -1.9932947e-15 -1.3806696e-20 -2.8555012e-14 -4.428052e-10 -2.1044906e-10
3.0971775e-20 -3.586639e-16 -3.0350536e-14 -5.866643e-16 2.058154e-20 -4.9365816e-20 -6.5493334e-21 4.58084e-40
-4.11884e-40 3.95588e-40 -5.6072987e-29 -1.310854e-39 1.9148493e-19 3.0186586e-19 -3.784494e-20 -3.4260428e-20
-1.331053e-19 -2.7612639e-12 -6.27284e-13 4.233181e-20 2.1863007e-17 -2.1938675e-09 -6.801426e-10 3.9416194e-35
1.2079221e-28 -1.0836038e-21 9.9803234e-21 -4.9681e-40 1.4191478e-21 9.340231e-18 5.9789457e-19 1.2995853e-20
6.8048293e-22 -4.275242e-13 -1.0873914e-15 4.7886996e-21 1.0215015e-21 -7.082951e-13 -3.957095e-17 -9.74747e-40
7.67922e-20 -2.0923023e-14 1.8667457e-19 4.1029927e-21 1.854261e-19 -1.0773476e-12 6.326251e-18 1.9305707e-20
-1.5527093e-14 -4.7338713e-12 1.5139459e-20 -2.971063e-21 -5.5978507e-16 -9.988451e-15 -6.922575e-27 -9.98885e-37
3.0499e-40 -2.6695075e-34 -4.9225e-19 -3.181393e-20 -1.0035967e-20 -6.67749e-15 -1.4116941e-09 -1.842893e-11
-7.9046576e-23 -2.591553e-19 -4.781026e-13 -3.15089e-14 3.9802865e-21 -9.361361e-21 7.9884654e-27 4.0041772e-29
5.4591226e-21 -8.953621e-13 -1.8916509e-13 -4.269959e-22 -9.094632e-22 -2.4023495e-11 -4.8359747e-11 -1.362461e-22
-4.5147448e-28 -8.637834e-14 -3.719271e-14 -1.1801364e-22 -5.4240056e-22 -1.6837301e-30 -3.1723895e-34 6.6728446e-21
7.38214e-40 2.053939e-39 5.00827e-40 -9.96389e-40 3.7088766e-20 -2.6901572e-15 -1.002558e-19 1.2504505e-27
3.0802833e-20 -2.561719e-13 6.704483e-19 -4.7041e-40 -2.4804665e-20 1.1938333e-17 9.013087e-20 6.20669e-40
4.25808e-40 1.2371176e-36 1.864171e-22 1.9374604e-21 -7.8616196e-28 3.1431177e-20 -4.284379e-20 -2.0200879e-27
8.250529e-28 -1.5153964e-19 9.491334e-21 2.7417071e-21 1.7694621e-21 -2.0495835e-19 -7.979311e-21 1.171902e-39
3.8680165e-21 9.1630246e-23 -1.240131e-19 -1.3689931e-20 1.0424945e-20 -2.9416168e-16 -4.303466e-13 -8.702827e-20
5.1342717e-21 -1.2686896e-10 -9.632666e-10 7.51335e-18 3.434714e-21 -6.645251e-12 -4.862583e-12 -5.380176e-22
-1.5343414e-26 7.553794e-18 -4.4098195e-14 -7.372244e-22 1.0103448e-20 -3.1896627e-12 -6.5746436e-11 5.380561e-22
2.5860162e-25 -1.1724066e-10 -6.944544e-18 -2.1336054e-28 1.7196065e-20 -6.572223e-15 1.1848931e-21 1.8089377e-22
6.974219e-21 2.950918e-28 2.9214447e-27 7.503163e-21 -4.846153e-21 -4.323992e-12 1.5297348e-11 1.2054199e-21
1.1780589e-21 -1.9621051e-09 -6.8757725e-12 -2.8435323e-21 -4.0332403e-20 -9.363315e-13 3.1691183e-20 1.8115126e-20
3.2569028e-20 2.0558198e-20 3.6610295e-21 -1.1782003e-20 6.0086044e-20 -9.0601144e-20 -3.708889e-15 -2.3202266e-19
1.3108572e-20 -2.1515193e-14 -8.570594e-14 6.3254215e-21 -1.2583944e-19 -2.5372723e-10 -4.1276054e-09 -1.1031048e-21
1.4428637e-26 -6.567229e-20 -2.0758038e-19 -1.2541023e-22 1.7424321e-26 -6.1693623e-12 -5.410827e-12 1.7814106e-28
9.371533e-38 -1.1774494e-10 -1.2661989e-13 3.8256304e-28 8.67379e-21 -1.1260245e-14 -1.6808846e-20 3.176076e-20
-1.6480651e-21 -2.1614225e-20 1.2789548e-20 -2.8083464e-20 -1.66968e-21 1.2090138e-20 -2.3088567e-20 -2.2482142e-20
4.8023723e-21 -3.2779607e-21 -3.499618e-21 -1.28434815e-20 -1.4372219e-21 -6.5901167e-22 5.794258e-21 -1.3050056e-20
5.180549e-22 8.0656624e-20 -7.9050026e-20 3.0275563e-20 -3.4844176e-20 -2.982879e-19 -2.0114298e-19 -1.9389513e-20
2.8461582e-21 -4.3403136e-13 -4.0332202e-13 4.7709916e-31 -2.1201844e-20 -2.51613e-09 -4.6158164e-08 1.150324e-20
5.489307e-20 1.4709933e-17 -1.5515848e-20 -1.114757e-39 1.1300448e-18 -1.2129593e-12 -2.1068445e-19 1.32358505e-27
-9.1262036e-20 2.6769732e-17 -5.4425505e-20 -8.534268e-31 6.8766064e-20 -2.4385822e-19 -3.5330746e-27 -4.350593e-28

F1.bias f4 [128]
00000000: 9198 42ac a8b7 58bb 80d8 8433 9993 ba84
00000010: ea3c dcba d1cb acba e46e 733c 1898 0100
00000020: 8a22 4d3d 2df4 0200 edd5 283d 7958 0200
00000030: d118 9e39 3100 2f2a ced9 0d80 a4d9 0000
00000040: a730 1c3d 3b34 103c f138 0680 d3b0 1abd
00000050: 531b 3cbd a81a aa3c 2d3e 70b1 ae5f c1bd
00000060: fc15 a53c 945a 480e c443 9c3d 7f37 f63c
00000070: b2cb f7a0 8b26 1896 f119 41bd 244d e83c
00000080: 1349 663d 4c9b c5ba 9f50 babc 473c 0c00
00000090: 738d 34bc dacc d2ae ba0b d6ba bc9e 6fbd
000000a0: 86b2 f2a5 4dc6 ce9c b235 603c 01da 0fbb
000000b0: 9459 0080 482b 0580 4183 56b1 2476 b3b7
000000c0: c1a3 4a3c b31b 41bc ced4 0e00 f1ed 65b1
000000d0: 4c8d b6b4 6911 0580 83e1 97b6 e138 18b2
000000e0: e90c e4ad 2701 0721 5568 0700 9459 41bb
000000f0: fd38 0380 dd1d 9e3b 4e37 0809 db78 bbbb
00000100: dd32 c63b 4964 3d9c d248 fabb 259d a33c
00000110: 580e cabc 7c60 dea3 0fb1 0200 da2b ebb5
00000120: 2e3c 2da9 cef1 a7b6 9639 233d 68a7 e79f
00000130: 668e a8bc 600a 0300 cfe7 a1b7 4007 1bbc
00000140: 535e 863c 1d69 973d 2a8f 03a4 c3b4 8fba
00000150: 85c3 a9b7 a689 a1ad 1859 4cbc a7d2 ff3b
00000160: 6317 37bc d412 00b9 6969 1aa3 39a1 8c3c
00000170: f6e3 613c e228 29bd 9d63 89bb eef4 7904
00000180: 5e55 93b7 f75d db3c ee2e 263d da63 4cbb
00000190: 975f b790 bb00 0980 0125 94b1 0ed9 203d
000001a0: 1502 59bb 003d 3f3b af07 0180 36bc 34bd
000001b0: 55f0 38bd 987b 0280 c236 513c be70 82a1
000001c0: 6630 99bc a1f2 a83c 8c25 0280 ed6c a5bc
000001d0: dd8c e13a 6e32 28b0 8839 000b 2862 0c3d
000001e0: 21d8 0580 3042 94bb 05e9 9bb6 8261 fe3b
000001f0: d095 e0b6 1199 7ab4 1996 0e00 58fc c4bb
-2.765375e-12 -0.0033068452 6.18611e-08 -4.3863937e-36 -0.0016802822 -0.0013183301 0.014857981 1.46396e-40
0.050081767 2.71265e-40 0.04121964 2.15409e-40 0.00030154598 1.5543189e-13 -1.271995e-39 7.8075e-41
0.038132336 0.008801515 -5.7144e-40 -0.03776629 -0.045924496 0.020764664 -3.495994e-09 -0.094420776
0.020152085 2.4695515e-30 0.07630113 0.03005576 -4.1978222e-19 -1.2290624e-25 -0.04714388 0.028357096
0.056222033 -0.0015076189 -0.022743521 1.12365e-39 -0.011020052 -9.586083e-11 -0.0016330399 -0.05850099
-4.210128e-16 -1.3683196e-21 0.013684677 -0.0021950009 -3.2135e-41 -4.74704e-40 -3.1215708e-09 -2.1393476e-05
0.012368144 -0.011786389 1.362037e-39 -3.345914e-09 -3.400295e-07 -4.65423e-40 -4.5264037e-06 -8.860497e-09
-2.5926332e-11 4.5741304e-19 6.80276e-40 -0.0029502856 -2.9595e-40 0.0048253373 1.6396409e-33 -0.005721194
0.006048544 -6.266447e-22 -0.0076380754 0.019972393 -0.024665043 -2.4110151e-17 2.47188e-40 -1.7521627e-06
-3.8465914e-14 -5.0051376e-06 0.03984984 -9.8109256e-20 -0.020575713 2.79228e-40 -1.930064e-05 -0.009462178
0.0164024 0.07393096 -2.852736e-17 -0.0010963905 -2.0237416e-05 -1.8364709e-11 -0.0124724135 0.007807094
-0.011175009 -0.00012214045 -8.370678e-18 0.01716672 0.01378726 -0.041298755 -0.004192783 2.9382276e-36
-1.7563518e-05 0.026778204 0.0405721 -0.0031187446 -7.232805e-29 -8.26782e-40 -4.3115738e-09 0.0392695
-0.0033112813 0.0029180646 -9.4592e-41 -0.044124804 -0.045151073 -2.28008e-40 0.012769403 -8.838985e-19
-0.018699836 0.020623507 -1.9714e-40 -0.020193541 0.0017208118 -6.118971e-10 2.4695185e-32 0.034273297
-5.3671e-40 -0.0045244917 -4.646487e-06 0.0077630887 -6.6931607e-06 -2.333875e-07 1.339542e-39 -0.006011527

O.weight f4 [10, 128]
00000000: 4c33 783b 6de5 1ebd 3965 67bc a60b 27bc
00000010: 717d 90bc 215e 43bc 8396 92be a5cd 0400
00000020: 55ae 85be 970a 083a f4fc be3d c324 989d
00000030: 6e2a d9bc e0b4 823b 168b 0b2f 46db 1d1a
00000040: c1d7 453e 368d 92be 6fb7 22ba 5172 e2be
00000050: 4484 8ebe ae0b 143e 8602 1926 562f efbd
00000060: 829e 743e f033 b93b 61b2 583e 3107 63be
00000070: bf57 863c 77a9 f0ba 0aee c63d bbf5 233d
00000080: caca 2dbe cc3e 09bc 00f0 aebc 0301 acba
00000090: f913 c53d 74f4 2db0 76c1 863a 5260 093d
000000a0: ce6c 883c 0b14 27bc 8c46 c0be 4a7f 87bc
000000b0: e0ac c38c e8f3 fdba fcdc eebb efb0 9835
000000c0: 3227 0bbe 1f30 123d ced9 3114 3581 093d
000000d0: 2cf8 003d 498a f3bb ca91 7a3c ba57 cf3b
000000e0: a911 ebac 9c11 693b b4a4 fc89 5e0c 4dbe
000000f0: 1945 0880 d772 2c3d 9ac2 94b9 f928 8abe
00000100: 3a0f 9ebe cf52 b51d 5470 29bc 088a 303e
00000110: daf7 bcbe cfca 7c24 e36a ed3b b4ee 1eba
00000120: ba50 56a3 7cc2 5e3c aa65 5ebe e49a 9b34
00000130: a8bd a2be 6eda a0ae 3dae 23bd 4164 80be
00000140: 66c9 5fbd 451d 513e 9fa6 7e2e e01a 36bb
00000150: 8c89 b838 c469 48ba 6116 89be 7b72 5ebe
00000160: 1462 aabe b807 14ba d632 f0a4 ec97 073e
00000170: 541f 063c ac28 a1be 4244 0a3d 1cfa bc3a
00000180: 70ff 9b3b b13e c2be 6321 3dbe d8fd 39be
00000190: c462 5fb9 7b2e 1436 e528 a73b 885d 32be
000001a0: 2cf9 593a f25a 8dbe 8e53 01bb 5485 89be
000001b0: 3b06 abbe 5bba 0380 ac46 313d 09fd 9d3a
000001c0: 3323 8e3a b440 ab3d b45c 613b b5e0 b3be
000001d0: a0a7 623e 1f90 193a d897 1421 d8a3 80bd
000001e0: 0d76 ed39 6f7a 493d 7c05 9339 55da fd3d
000001f0: 3346 63ba 930d 4fb4 a420 0680 620e 613c
00000200: d412 d6b9 9b47 b0bd db65 b1bb 8ec5 7c3a
00000210: 7fba 89bb 1896 f83b bc1e 95be 0ed6 0600
00000220: 5159 573e 5fc6 963a 59fb a3be fa95 c3a8
00000230: 64ed 44b9 843e 85bb 571f 5629 d614 0b80
00000240: f21e 0c3e 8ccc 49be 9d57 39ae 69d4 23be
00000250: fd0a a7be 1263 c93d 7955 7e2a 6718 b0be
00000260: b5cd 72be 48ae 53ba 77f5 063e 3f53 613e
00000270: cd07 afbc 1be1 7939 18f2 c6be dd5f 963e
00000280: 0bce 0e3e a9ee 243a 958e 72bd ef8d 0738
00000290: 5bbf c2be 6604 2131 8f85 843b 07d6 dabe
000002a0: 78f7 fabb c1c2 49bb d528 a5be 799c 1bbc
000002b0: 20a0 0800 3a0a 463a 5f22 81bc bbf9 2637
000002c0: 63d2 6ebd 65d9 83bc 79db 0921 7604 53bc
000002d0: 32d2 813b 43e3 b03a 459f 69bd 7887 9cbb
000002e0: 207a 5a2f f781 823b 1a23 0480 5ea3 a6be
000002f0: 46e8 0680 d069 95be 12ce beba 1cdf 31bc
00000300: ef3b ab3d 3681 279d 0907 1cbc 5996 59be
00000310: d189 c93c 2167 7327 1f6f 52bb abd2 8e3c
00000320: a7fc 1926 55d9 d33c fbc2 263e 3268 76bb
00000330: bffc daba f5b0 02ab 7865 ffbb 0151 2e3d
00000340: 7f3c 87be c22b 173e c2b3 152c e3f6 e3bb
00000350: d729 7739 5607 89b7 360b f63d 9528 373e
00000360: fc72 603c 78c0 8ebc 2981 efa2 a0bd dc3d
00000370: 18ac aebe 0f59 40bc a247 1ebc 7fbf c9ba
00000380: 50ee 3f3c 5399 72be 3d77 523e 14ba 0d3e
00000390: 7ecc 3dbb 1565 ed2f 5620 55bc f5d1 753e
000003a0: 961c 53bd 8141 bf3d 5ca9 dcbb 864a a5be
000003b0: d4dc 82be 3b2f 0380 a049 b4be d36a 813b
000003c0: a120 833d 6ec5 89be a54e 623a 47c7 8fbe
000003d0: f27a 273e e210 13bc 6174 358f 1be8 623e
000003e0: ed9c 68bb 70d0 1b3d 9332 d73c 0578 b13d
000003f0: ad37 e8bb 1543 91b5 4376 0000 bc65 a0bb
0.0037872372 -0.038793016 -0.014123254 -0.010195648 -0.01763794 -0.011924298 -0.28630456 4.41113e-40
-0.26109567 0.0005189566 0.09325591 -4.0272076e-21 -0.02650949 0.003988847 1.269139e-10 3.2643967e-23
0.19320585 -0.2862336 -0.00062071433 -0.44227841 -0.27835286 0.1445758 5.308596e-16 -0.116789505
0.23888591 0.0056519434 0.21161796 -0.22170712 0.016399262 -0.0018361051 0.09713371 0.04002927
-0.16971889 -0.008376788 -0.021354675 -0.001312286 0.0962295 -6.328442e-10 0.0010281045 0.033539124
0.016653445 -0.01019765 -0.37553823 -0.016540188 -3.0148552e-31 -0.0019375058 -0.007289527 1.1376377e-06
-0.1358917 0.035690423 8.979171e-27 0.033570487 0.031486675 -0.0074322564 0.015293548 0.0063275965
-6.6810624e-12 0.0035563475 -6.082168e-33 -0.20024249 -7.59472e-40 0.042101707 -0.0002837375 -0.26984385
-0.30870992 4.7995923e-21 -0.0103417225 0.17240155 -0.36907846 5.4815575e-17 0.007245408 -0.0006062791
-1.1618058e-17 0.013596173 -0.2171847 2.8983698e-07 -0.3178532 -7.3147585e-11 -0.03996109 -0.25076488
-0.054635428 0.20421322 5.7900903e-11 -0.0027787015 8.799424e-05 -0.0007645155 -0.26774886 -0.21723358
-0.33277953 -0.0005646902 -1.0416953e-16 0.13241547 0.00818618 -0.31476343 0.033756502 0.00144178
0.004760675 -0.37938455 -0.18469767 -0.1816324 -0.0002130373 2.2080774e-06 0.0051013106 -0.17418492
0.00083150226 -0.27608448 -0.001973364 -0.26859534 -0.3340319 -3.42358e-40 0.04328029 0.001205356
0.001084423 0.083619505 0.003438753 -0.35132375 0.22134256 0.00058579625 5.0345314e-19 -0.06281251
0.00045292117 0.049189027 0.0002804211 0.12395159 -0.00086698233 -1.9283316e-07 -5.62722e-40 0.013736339
-0.0004083129 -0.08607408 -0.0054137534 0.0009642475 -0.0042031403 0.007586252 -0.2912501 6.27801e-40
0.21030165 0.0011503211 -0.320277 -2.1714391e-14 -0.00018780452 -0.0040662903 4.754473e-14 -1.017665e-39
0.1368368 -0.19706935 -4.2141946e-11 -0.15998997 -0.3262557 0.09833349 2.2589386e-13 -0.34393618
-0.23711284 -0.0008074981 0.13179575 0.22004412 -0.021366024 0.00023830349 -0.38856578 0.29370013
0.13945787 0.00062916667 -0.059218008 3.2318694e-05 -0.38036618 2.3431084e-09 0.0040442417 -0.42741415
-0.007658895 -0.0030786248 -0.32257715 -0.009497755 7.92126e-40 0.00075546245 -0.01576346 9.952516e-06
-0.05830611 -0.016094873 4.6707875e-19 -0.012879482 0.003961825 0.0013495464 -0.057036657 -0.0047768913
1.9870372e-10 0.003982778 -3.79934e-40 -0.32546514 -6.34337e-40 -0.2918229 -0.0014557263 -0.010856416
0.08361041 -2.2169066e-21 -0.009523162 -0.2124876 0.024601849 3.377893e-15 -0.003210969 0.017434439
5.3424946e-16 0.025860468 0.16285317 -0.0037598726 -0.0016707404 -4.6430855e-13 -0.0077940784 0.04255772
-0.26413342 0.14762786 2.127396e-12 -0.0069569214 0.00023571342 -1.6335089e-05 0.12013857 0.17886575
0.013699289 -0.01742576 -6.4917833e-18 0.107783556 -0.34115672 -0.011739983 -0.009660633 -0.0015392153
0.011714533 -0.23691301 0.20553298 0.13840514 -0.0028960998 4.3181872e-10 -0.013008198 0.24005874
-0.051540934 0.09338666 -0.0067340564 -0.3228342 -0.25559103 -2.9245e-40 -0.3521242 0.003949502
0.06402708 -0.2690844 0.0008632935 -0.28081724 0.16355494 -0.008976193 -8.946403e-30 0.22158854
-0.0035493926 0.03804058 0.026269233 0.0866547 -0.007086715 -1.0822865e-06 4.2424e-41 -0.00489494

O.bias f4 [10]
00000000: 76a7 263e 0355 0a3e 5bfa 043e 2373 babd
00000010: b58e 76be 784d 033d a4a7 f6bd 2ab8 16be
00000020: dd2b b7bd 68f0 e33d
0.16274819 0.13508992 0.12986128 -0.09103992 -0.24077876 0.0320563 -0.12043694 -0.1471869
-0.08943913 0.11129838
